Model: "encoder"
_________________________________________________________________
Layer (type)                 Output Shape              Param #   
=================================================================
lambda (Lambda)              (None, 112, 112, 3)       0         
_________________________________________________________________
lambda_1 (Lambda)            (None, 112, 112, 3)       0         
_________________________________________________________________
lambda_2 (Lambda)            (None, 56, 56, 96)        0         
_________________________________________________________________
batch_normalization (BatchNo (None, 56, 56, 96)        384       
_________________________________________________________________
conv2d (Conv2D)              (None, 28, 28, 32)        27680     
_________________________________________________________________
batch_normalization_1 (Batch (None, 28, 28, 32)        128       
_________________________________________________________________
conv2d_1 (Conv2D)            (None, 14, 14, 32)        9248      
_________________________________________________________________
batch_normalization_2 (Batch (None, 14, 14, 32)        128       
_________________________________________________________________
flatten (Flatten)            (None, 6272)              0         
_________________________________________________________________
dropout (Dropout)            (None, 6272)              0         
_________________________________________________________________
reshape (Reshape)            (None, 14, 14, 32)        0         
_________________________________________________________________
dense_c2f_gl (dense_c2f_gl)  (None, 4643)              29125539  
=================================================================
Total params: 29,163,107
Trainable params: 29,162,787
Non-trainable params: 320
_________________________________________________________________
None
WARNING:tensorflow:From encoder_train.py:103: Model.fit_generator (from tensorflow.python.keras.engine.training) is deprecated and will be removed in a future version.
Instructions for updating:
…
